__________________________________________________________________________________________________
Layer (type)                    Output Shape         Param #     Connected to                     
==================================================================================================
main_input1 (InputLayer)        (None, 160, 160, 3)  0                                            
__________________________________________________________________________________________________
zero_padding2d_32 (ZeroPadding2 (None, 162, 162, 3)  0           main_input1[0][0]                
__________________________________________________________________________________________________
conv2d_29 (Conv2D)              (None, 160, 160, 64) 1792        zero_padding2d_32[0][0]          
__________________________________________________________________________________________________
zero_padding2d_33 (ZeroPadding2 (None, 162, 162, 64) 0           conv2d_29[0][0]                  
__________________________________________________________________________________________________
conv2d_30 (Conv2D)              (None, 160, 160, 64) 36928       zero_padding2d_33[0][0]          
__________________________________________________________________________________________________
zero_padding2d_34 (ZeroPadding2 (None, 162, 162, 64) 0           conv2d_30[0][0]                  
__________________________________________________________________________________________________
max_pooling2d_6 (MaxPooling2D)  (None, 80, 80, 64)   0           zero_padding2d_34[0][0]          
__________________________________________________________________________________________________
zero_padding2d_35 (ZeroPadding2 (None, 82, 82, 64)   0           max_pooling2d_6[0][0]            
__________________________________________________________________________________________________
conv2d_31 (Conv2D)              (None, 80, 80, 128)  73856       zero_padding2d_35[0][0]          
__________________________________________________________________________________________________
zero_padding2d_36 (ZeroPadding2 (None, 82, 82, 128)  0           conv2d_31[0][0]                  
__________________________________________________________________________________________________
conv2d_32 (Conv2D)              (None, 80, 80, 128)  147584      zero_padding2d_36[0][0]          
__________________________________________________________________________________________________
zero_padding2d_37 (ZeroPadding2 (None, 82, 82, 128)  0           conv2d_32[0][0]                  
__________________________________________________________________________________________________
max_pooling2d_7 (MaxPooling2D)  (None, 40, 40, 128)  0           zero_padding2d_37[0][0]          
__________________________________________________________________________________________________
zero_padding2d_38 (ZeroPadding2 (None, 42, 42, 128)  0           max_pooling2d_7[0][0]            
__________________________________________________________________________________________________
conv2d_33 (Conv2D)              (None, 40, 40, 256)  295168      zero_padding2d_38[0][0]          
__________________________________________________________________________________________________
zero_padding2d_39 (ZeroPadding2 (None, 42, 42, 256)  0           conv2d_33[0][0]                  
__________________________________________________________________________________________________
conv2d_34 (Conv2D)              (None, 40, 40, 256)  590080      zero_padding2d_39[0][0]          
__________________________________________________________________________________________________
zero_padding2d_40 (ZeroPadding2 (None, 42, 42, 256)  0           conv2d_34[0][0]                  
__________________________________________________________________________________________________
conv2d_35 (Conv2D)              (None, 40, 40, 256)  590080      zero_padding2d_40[0][0]          
__________________________________________________________________________________________________
zero_padding2d_41 (ZeroPadding2 (None, 42, 42, 256)  0           conv2d_35[0][0]                  
__________________________________________________________________________________________________
max_pooling2d_8 (MaxPooling2D)  (None, 20, 20, 256)  0           zero_padding2d_41[0][0]          
__________________________________________________________________________________________________
zero_padding2d_42 (ZeroPadding2 (None, 22, 22, 256)  0           max_pooling2d_8[0][0]            
__________________________________________________________________________________________________
conv2d_36 (Conv2D)              (None, 20, 20, 512)  1180160     zero_padding2d_42[0][0]          
__________________________________________________________________________________________________
zero_padding2d_43 (ZeroPadding2 (None, 22, 22, 512)  0           conv2d_36[0][0]                  
__________________________________________________________________________________________________
conv2d_37 (Conv2D)              (None, 20, 20, 512)  2359808     zero_padding2d_43[0][0]          
__________________________________________________________________________________________________
zero_padding2d_44 (ZeroPadding2 (None, 22, 22, 512)  0           conv2d_37[0][0]                  
__________________________________________________________________________________________________
conv2d_38 (Conv2D)              (None, 20, 20, 512)  2359808     zero_padding2d_44[0][0]          
__________________________________________________________________________________________________
zero_padding2d_45 (ZeroPadding2 (None, 22, 22, 512)  0           conv2d_38[0][0]                  
__________________________________________________________________________________________________
max_pooling2d_9 (MaxPooling2D)  (None, 10, 10, 512)  0           zero_padding2d_45[0][0]          
__________________________________________________________________________________________________
zero_padding2d_46 (ZeroPadding2 (None, 14, 14, 512)  0           max_pooling2d_9[0][0]            
__________________________________________________________________________________________________
conv2d_39 (Conv2D)              (None, 10, 10, 512)  2359808     zero_padding2d_46[0][0]          
__________________________________________________________________________________________________
zero_padding2d_47 (ZeroPadding2 (None, 14, 14, 512)  0           conv2d_39[0][0]                  
__________________________________________________________________________________________________
conv2d_40 (Conv2D)              (None, 10, 10, 512)  2359808     zero_padding2d_47[0][0]          
__________________________________________________________________________________________________
zero_padding2d_48 (ZeroPadding2 (None, 14, 14, 512)  0           conv2d_40[0][0]                  
__________________________________________________________________________________________________
conv2d_41 (Conv2D)              (None, 10, 10, 512)  2359808     zero_padding2d_48[0][0]          
__________________________________________________________________________________________________
zero_padding2d_49 (ZeroPadding2 (None, 12, 12, 512)  0           conv2d_41[0][0]                  
__________________________________________________________________________________________________
max_pooling2d_10 (MaxPooling2D) (None, 10, 10, 512)  0           zero_padding2d_49[0][0]          
__________________________________________________________________________________________________
zero_padding2d_50 (ZeroPadding2 (None, 34, 34, 512)  0           max_pooling2d_10[0][0]           
__________________________________________________________________________________________________
conv2d_42 (Conv2D)              (None, 10, 10, 1024) 4719616     zero_padding2d_50[0][0]          
__________________________________________________________________________________________________
dropout_3 (Dropout)             (None, 10, 10, 1024) 0           conv2d_42[0][0]                  
__________________________________________________________________________________________________
conv2d_43 (Conv2D)              (None, 10, 10, 1024) 1049600     dropout_3[0][0]                  
__________________________________________________________________________________________________
dropout_4 (Dropout)             (None, 10, 10, 1024) 0           conv2d_43[0][0]                  
__________________________________________________________________________________________________
zero_padding2d_51 (ZeroPadding2 (None, 12, 12, 1024) 0           dropout_4[0][0]                  
__________________________________________________________________________________________________
conv2d_45 (Conv2D)              (None, 10, 10, 64)   589888      zero_padding2d_51[0][0]          
__________________________________________________________________________________________________
conv2d_44 (Conv2D)              (None, 10, 10, 64)   65600       dropout_4[0][0]                  
__________________________________________________________________________________________________
dense_15 (Dense)                (None, 10, 10, 64)   4160        conv2d_45[0][0]                  
__________________________________________________________________________________________________
dense_14 (Dense)                (None, 10, 10, 64)   4160        conv2d_44[0][0]                  
__________________________________________________________________________________________________
concatenate_7 (Concatenate)     (None, 10, 10, 128)  0           dense_15[0][0]                   
                                                                 dense_14[0][0]                   
__________________________________________________________________________________________________
zero_padding2d_53 (ZeroPadding2 (None, 12, 12, 512)  0           max_pooling2d_10[0][0]           
__________________________________________________________________________________________________
zero_padding2d_52 (ZeroPadding2 (None, 12, 12, 128)  0           concatenate_7[0][0]              
__________________________________________________________________________________________________
conv2d_47 (Conv2D)              (None, 10, 10, 64)   294976      zero_padding2d_53[0][0]          
__________________________________________________________________________________________________
conv2d_46 (Conv2D)              (None, 10, 10, 64)   73792       zero_padding2d_52[0][0]          
__________________________________________________________________________________________________
dense_17 (Dense)                (None, 10, 10, 64)   4160        conv2d_47[0][0]                  
__________________________________________________________________________________________________
dense_16 (Dense)                (None, 10, 10, 64)   4160        conv2d_46[0][0]                  
__________________________________________________________________________________________________
concatenate_8 (Concatenate)     (None, 10, 10, 128)  0           dense_17[0][0]                   
                                                                 dense_16[0][0]                   
__________________________________________________________________________________________________
zero_padding2d_55 (ZeroPadding2 (None, 12, 12, 512)  0           max_pooling2d_9[0][0]            
__________________________________________________________________________________________________
zero_padding2d_54 (ZeroPadding2 (None, 12, 12, 128)  0           concatenate_8[0][0]              
__________________________________________________________________________________________________
conv2d_49 (Conv2D)              (None, 10, 10, 64)   294976      zero_padding2d_55[0][0]          
__________________________________________________________________________________________________
conv2d_48 (Conv2D)              (None, 10, 10, 64)   73792       zero_padding2d_54[0][0]          
__________________________________________________________________________________________________
dense_19 (Dense)                (None, 10, 10, 64)   4160        conv2d_49[0][0]                  
__________________________________________________________________________________________________
dense_18 (Dense)                (None, 10, 10, 64)   4160        conv2d_48[0][0]                  
__________________________________________________________________________________________________
concatenate_9 (Concatenate)     (None, 10, 10, 128)  0           dense_19[0][0]                   
                                                                 dense_18[0][0]                   
__________________________________________________________________________________________________
zero_padding2d_56 (ZeroPadding2 (None, 12, 12, 128)  0           concatenate_9[0][0]              
__________________________________________________________________________________________________
zero_padding2d_57 (ZeroPadding2 (None, 22, 22, 256)  0           max_pooling2d_8[0][0]            
__________________________________________________________________________________________________
conv2d_50 (Conv2D)              (None, 10, 10, 64)   73792       zero_padding2d_56[0][0]          
__________________________________________________________________________________________________
conv2d_51 (Conv2D)              (None, 20, 20, 64)   147520      zero_padding2d_57[0][0]          
__________________________________________________________________________________________________
dense_20 (Dense)                (None, 10, 10, 64)   4160        conv2d_50[0][0]                  
__________________________________________________________________________________________________
dense_21 (Dense)                (None, 20, 20, 64)   4160        conv2d_51[0][0]                  
__________________________________________________________________________________________________
up_sampling2d_2 (UpSampling2D)  (None, 20, 20, 64)   0           dense_20[0][0]                   
__________________________________________________________________________________________________
concatenate_10 (Concatenate)    (None, 20, 20, 128)  0           dense_21[0][0]                   
                                                                 up_sampling2d_2[0][0]            
__________________________________________________________________________________________________
zero_padding2d_58 (ZeroPadding2 (None, 22, 22, 128)  0           concatenate_10[0][0]             
__________________________________________________________________________________________________
zero_padding2d_59 (ZeroPadding2 (None, 42, 42, 128)  0           max_pooling2d_7[0][0]            
__________________________________________________________________________________________________
conv2d_52 (Conv2D)              (None, 20, 20, 64)   73792       zero_padding2d_58[0][0]          
__________________________________________________________________________________________________
conv2d_53 (Conv2D)              (None, 40, 40, 64)   73792       zero_padding2d_59[0][0]          
__________________________________________________________________________________________________
dense_22 (Dense)                (None, 20, 20, 64)   4160        conv2d_52[0][0]                  
__________________________________________________________________________________________________
dense_23 (Dense)                (None, 40, 40, 64)   4160        conv2d_53[0][0]                  
__________________________________________________________________________________________________
conv2d_transpose_4 (Conv2DTrans (None, 40, 40, 64)   65600       dense_22[0][0]                   
__________________________________________________________________________________________________
concatenate_11 (Concatenate)    (None, 40, 40, 128)  0           dense_23[0][0]                   
                                                                 conv2d_transpose_4[0][0]         
__________________________________________________________________________________________________
zero_padding2d_60 (ZeroPadding2 (None, 42, 42, 128)  0           concatenate_11[0][0]             
__________________________________________________________________________________________________
zero_padding2d_61 (ZeroPadding2 (None, 82, 82, 64)   0           max_pooling2d_6[0][0]            
__________________________________________________________________________________________________
conv2d_54 (Conv2D)              (None, 40, 40, 64)   73792       zero_padding2d_60[0][0]          
__________________________________________________________________________________________________
conv2d_55 (Conv2D)              (None, 80, 80, 64)   36928       zero_padding2d_61[0][0]          
__________________________________________________________________________________________________
dense_24 (Dense)                (None, 40, 40, 64)   4160        conv2d_54[0][0]                  
__________________________________________________________________________________________________
dense_25 (Dense)                (None, 80, 80, 64)   4160        conv2d_55[0][0]                  
__________________________________________________________________________________________________
conv2d_transpose_5 (Conv2DTrans (None, 80, 80, 64)   65600       dense_24[0][0]                   
__________________________________________________________________________________________________
concatenate_12 (Concatenate)    (None, 80, 80, 128)  0           dense_25[0][0]                   
                                                                 conv2d_transpose_5[0][0]         
__________________________________________________________________________________________________
zero_padding2d_62 (ZeroPadding2 (None, 82, 82, 128)  0           concatenate_12[0][0]             
__________________________________________________________________________________________________
conv2d_56 (Conv2D)              (None, 80, 80, 64)   73792       zero_padding2d_62[0][0]          
__________________________________________________________________________________________________
dense_26 (Dense)                (None, 80, 80, 64)   4160        conv2d_56[0][0]                  
__________________________________________________________________________________________________
conv2d_transpose_6 (Conv2DTrans (None, 160, 160, 64) 65600       dense_26[0][0]                   
==================================================================================================
Total params: 22,681,216
Trainable params: 22,681,216
Non-trainable params: 0
__________________________________________________________________________________________________
None
__________________________________________________________________________________________________
Layer (type)                    Output Shape         Param #     Connected to                     
==================================================================================================
main_input0 (InputLayer)        (None, 320, 320, 3)  0                                            
__________________________________________________________________________________________________
zero_padding2d_1 (ZeroPadding2D (None, 322, 322, 3)  0           main_input0[0][0]                
__________________________________________________________________________________________________
conv2d_1 (Conv2D)               (None, 320, 320, 64) 1792        zero_padding2d_1[0][0]           
__________________________________________________________________________________________________
zero_padding2d_2 (ZeroPadding2D (None, 322, 322, 64) 0           conv2d_1[0][0]                   
__________________________________________________________________________________________________
conv2d_2 (Conv2D)               (None, 320, 320, 64) 36928       zero_padding2d_2[0][0]           
__________________________________________________________________________________________________
zero_padding2d_3 (ZeroPadding2D (None, 322, 322, 64) 0           conv2d_2[0][0]                   
__________________________________________________________________________________________________
max_pooling2d_1 (MaxPooling2D)  (None, 160, 160, 64) 0           zero_padding2d_3[0][0]           
__________________________________________________________________________________________________
zero_padding2d_4 (ZeroPadding2D (None, 162, 162, 64) 0           max_pooling2d_1[0][0]            
__________________________________________________________________________________________________
conv2d_3 (Conv2D)               (None, 160, 160, 128 73856       zero_padding2d_4[0][0]           
__________________________________________________________________________________________________
zero_padding2d_5 (ZeroPadding2D (None, 162, 162, 128 0           conv2d_3[0][0]                   
__________________________________________________________________________________________________
conv2d_4 (Conv2D)               (None, 160, 160, 128 147584      zero_padding2d_5[0][0]           
__________________________________________________________________________________________________
zero_padding2d_6 (ZeroPadding2D (None, 162, 162, 128 0           conv2d_4[0][0]                   
__________________________________________________________________________________________________
max_pooling2d_2 (MaxPooling2D)  (None, 80, 80, 128)  0           zero_padding2d_6[0][0]           
__________________________________________________________________________________________________
zero_padding2d_7 (ZeroPadding2D (None, 82, 82, 128)  0           max_pooling2d_2[0][0]            
__________________________________________________________________________________________________
conv2d_5 (Conv2D)               (None, 80, 80, 256)  295168      zero_padding2d_7[0][0]           
__________________________________________________________________________________________________
zero_padding2d_8 (ZeroPadding2D (None, 82, 82, 256)  0           conv2d_5[0][0]                   
__________________________________________________________________________________________________
conv2d_6 (Conv2D)               (None, 80, 80, 256)  590080      zero_padding2d_8[0][0]           
__________________________________________________________________________________________________
zero_padding2d_9 (ZeroPadding2D (None, 82, 82, 256)  0           conv2d_6[0][0]                   
__________________________________________________________________________________________________
conv2d_7 (Conv2D)               (None, 80, 80, 256)  590080      zero_padding2d_9[0][0]           
__________________________________________________________________________________________________
zero_padding2d_10 (ZeroPadding2 (None, 82, 82, 256)  0           conv2d_7[0][0]                   
__________________________________________________________________________________________________
max_pooling2d_3 (MaxPooling2D)  (None, 40, 40, 256)  0           zero_padding2d_10[0][0]          
__________________________________________________________________________________________________
zero_padding2d_11 (ZeroPadding2 (None, 42, 42, 256)  0           max_pooling2d_3[0][0]            
__________________________________________________________________________________________________
conv2d_8 (Conv2D)               (None, 40, 40, 512)  1180160     zero_padding2d_11[0][0]          
__________________________________________________________________________________________________
zero_padding2d_12 (ZeroPadding2 (None, 42, 42, 512)  0           conv2d_8[0][0]                   
__________________________________________________________________________________________________
conv2d_9 (Conv2D)               (None, 40, 40, 512)  2359808     zero_padding2d_12[0][0]          
__________________________________________________________________________________________________
zero_padding2d_13 (ZeroPadding2 (None, 42, 42, 512)  0           conv2d_9[0][0]                   
__________________________________________________________________________________________________
conv2d_10 (Conv2D)              (None, 40, 40, 512)  2359808     zero_padding2d_13[0][0]          
__________________________________________________________________________________________________
zero_padding2d_14 (ZeroPadding2 (None, 42, 42, 512)  0           conv2d_10[0][0]                  
__________________________________________________________________________________________________
max_pooling2d_4 (MaxPooling2D)  (None, 40, 40, 512)  0           zero_padding2d_14[0][0]          
__________________________________________________________________________________________________
zero_padding2d_15 (ZeroPadding2 (None, 44, 44, 512)  0           max_pooling2d_4[0][0]            
__________________________________________________________________________________________________
conv2d_11 (Conv2D)              (None, 40, 40, 512)  2359808     zero_padding2d_15[0][0]          
__________________________________________________________________________________________________
zero_padding2d_16 (ZeroPadding2 (None, 44, 44, 512)  0           conv2d_11[0][0]                  
__________________________________________________________________________________________________
conv2d_12 (Conv2D)              (None, 40, 40, 512)  2359808     zero_padding2d_16[0][0]          
__________________________________________________________________________________________________
zero_padding2d_17 (ZeroPadding2 (None, 44, 44, 512)  0           conv2d_12[0][0]                  
__________________________________________________________________________________________________
conv2d_13 (Conv2D)              (None, 40, 40, 512)  2359808     zero_padding2d_17[0][0]          
__________________________________________________________________________________________________
zero_padding2d_18 (ZeroPadding2 (None, 42, 42, 512)  0           conv2d_13[0][0]                  
__________________________________________________________________________________________________
max_pooling2d_5 (MaxPooling2D)  (None, 40, 40, 512)  0           zero_padding2d_18[0][0]          
__________________________________________________________________________________________________
zero_padding2d_19 (ZeroPadding2 (None, 64, 64, 512)  0           max_pooling2d_5[0][0]            
__________________________________________________________________________________________________
conv2d_14 (Conv2D)              (None, 40, 40, 1024) 4719616     zero_padding2d_19[0][0]          
__________________________________________________________________________________________________
dropout_1 (Dropout)             (None, 40, 40, 1024) 0           conv2d_14[0][0]                  
__________________________________________________________________________________________________
conv2d_15 (Conv2D)              (None, 40, 40, 1024) 1049600     dropout_1[0][0]                  
__________________________________________________________________________________________________
dropout_2 (Dropout)             (None, 40, 40, 1024) 0           conv2d_15[0][0]                  
__________________________________________________________________________________________________
zero_padding2d_20 (ZeroPadding2 (None, 42, 42, 1024) 0           dropout_2[0][0]                  
__________________________________________________________________________________________________
conv2d_17 (Conv2D)              (None, 40, 40, 64)   589888      zero_padding2d_20[0][0]          
__________________________________________________________________________________________________
conv2d_16 (Conv2D)              (None, 40, 40, 64)   65600       dropout_2[0][0]                  
__________________________________________________________________________________________________
dense_2 (Dense)                 (None, 40, 40, 64)   4160        conv2d_17[0][0]                  
__________________________________________________________________________________________________
dense_1 (Dense)                 (None, 40, 40, 64)   4160        conv2d_16[0][0]                  
__________________________________________________________________________________________________
concatenate_1 (Concatenate)     (None, 40, 40, 128)  0           dense_2[0][0]                    
                                                                 dense_1[0][0]                    
__________________________________________________________________________________________________
zero_padding2d_22 (ZeroPadding2 (None, 42, 42, 512)  0           max_pooling2d_5[0][0]            
__________________________________________________________________________________________________
zero_padding2d_21 (ZeroPadding2 (None, 42, 42, 128)  0           concatenate_1[0][0]              
__________________________________________________________________________________________________
conv2d_19 (Conv2D)              (None, 40, 40, 64)   294976      zero_padding2d_22[0][0]          
__________________________________________________________________________________________________
conv2d_18 (Conv2D)              (None, 40, 40, 64)   73792       zero_padding2d_21[0][0]          
__________________________________________________________________________________________________
dense_4 (Dense)                 (None, 40, 40, 64)   4160        conv2d_19[0][0]                  
__________________________________________________________________________________________________
dense_3 (Dense)                 (None, 40, 40, 64)   4160        conv2d_18[0][0]                  
__________________________________________________________________________________________________
concatenate_2 (Concatenate)     (None, 40, 40, 128)  0           dense_4[0][0]                    
                                                                 dense_3[0][0]                    
__________________________________________________________________________________________________
zero_padding2d_24 (ZeroPadding2 (None, 42, 42, 512)  0           max_pooling2d_4[0][0]            
__________________________________________________________________________________________________
zero_padding2d_23 (ZeroPadding2 (None, 42, 42, 128)  0           concatenate_2[0][0]              
__________________________________________________________________________________________________
conv2d_21 (Conv2D)              (None, 40, 40, 64)   294976      zero_padding2d_24[0][0]          
__________________________________________________________________________________________________
conv2d_20 (Conv2D)              (None, 40, 40, 64)   73792       zero_padding2d_23[0][0]          
__________________________________________________________________________________________________
dense_6 (Dense)                 (None, 40, 40, 64)   4160        conv2d_21[0][0]                  
__________________________________________________________________________________________________
dense_5 (Dense)                 (None, 40, 40, 64)   4160        conv2d_20[0][0]                  
__________________________________________________________________________________________________
concatenate_3 (Concatenate)     (None, 40, 40, 128)  0           dense_6[0][0]                    
                                                                 dense_5[0][0]                    
__________________________________________________________________________________________________
zero_padding2d_26 (ZeroPadding2 (None, 42, 42, 256)  0           max_pooling2d_3[0][0]            
__________________________________________________________________________________________________
zero_padding2d_25 (ZeroPadding2 (None, 42, 42, 128)  0           concatenate_3[0][0]              
__________________________________________________________________________________________________
conv2d_23 (Conv2D)              (None, 40, 40, 64)   147520      zero_padding2d_26[0][0]          
__________________________________________________________________________________________________
conv2d_22 (Conv2D)              (None, 40, 40, 64)   73792       zero_padding2d_25[0][0]          
__________________________________________________________________________________________________
dense_8 (Dense)                 (None, 40, 40, 64)   4160        conv2d_23[0][0]                  
__________________________________________________________________________________________________
dense_7 (Dense)                 (None, 40, 40, 64)   4160        conv2d_22[0][0]                  
__________________________________________________________________________________________________
concatenate_4 (Concatenate)     (None, 40, 40, 128)  0           dense_8[0][0]                    
                                                                 dense_7[0][0]                    
__________________________________________________________________________________________________
zero_padding2d_27 (ZeroPadding2 (None, 42, 42, 128)  0           concatenate_4[0][0]              
__________________________________________________________________________________________________
zero_padding2d_28 (ZeroPadding2 (None, 82, 82, 128)  0           max_pooling2d_2[0][0]            
__________________________________________________________________________________________________
conv2d_24 (Conv2D)              (None, 40, 40, 64)   73792       zero_padding2d_27[0][0]          
__________________________________________________________________________________________________
conv2d_25 (Conv2D)              (None, 80, 80, 64)   73792       zero_padding2d_28[0][0]          
__________________________________________________________________________________________________
dense_9 (Dense)                 (None, 40, 40, 64)   4160        conv2d_24[0][0]                  
__________________________________________________________________________________________________
dense_10 (Dense)                (None, 80, 80, 64)   4160        conv2d_25[0][0]                  
__________________________________________________________________________________________________
conv2d_transpose_1 (Conv2DTrans (None, 80, 80, 64)   65600       dense_9[0][0]                    
__________________________________________________________________________________________________
concatenate_5 (Concatenate)     (None, 80, 80, 128)  0           dense_10[0][0]                   
                                                                 conv2d_transpose_1[0][0]         
__________________________________________________________________________________________________
zero_padding2d_29 (ZeroPadding2 (None, 82, 82, 128)  0           concatenate_5[0][0]              
__________________________________________________________________________________________________
zero_padding2d_30 (ZeroPadding2 (None, 162, 162, 64) 0           max_pooling2d_1[0][0]            
__________________________________________________________________________________________________
conv2d_26 (Conv2D)              (None, 80, 80, 64)   73792       zero_padding2d_29[0][0]          
__________________________________________________________________________________________________
conv2d_27 (Conv2D)              (None, 160, 160, 64) 36928       zero_padding2d_30[0][0]          
__________________________________________________________________________________________________
dense_11 (Dense)                (None, 80, 80, 64)   4160        conv2d_26[0][0]                  
__________________________________________________________________________________________________
dense_12 (Dense)                (None, 160, 160, 64) 4160        conv2d_27[0][0]                  
__________________________________________________________________________________________________
conv2d_transpose_2 (Conv2DTrans (None, 160, 160, 64) 65600       dense_11[0][0]                   
__________________________________________________________________________________________________
concatenate_6 (Concatenate)     (None, 160, 160, 128 0           dense_12[0][0]                   
                                                                 conv2d_transpose_2[0][0]         
__________________________________________________________________________________________________
zero_padding2d_31 (ZeroPadding2 (None, 162, 162, 128 0           concatenate_6[0][0]              
__________________________________________________________________________________________________
conv2d_28 (Conv2D)              (None, 160, 160, 64) 73792       zero_padding2d_31[0][0]          
__________________________________________________________________________________________________
dense_13 (Dense)                (None, 160, 160, 64) 4160        conv2d_28[0][0]                  
__________________________________________________________________________________________________
conv2d_transpose_3 (Conv2DTrans (None, 320, 320, 64) 65600       dense_13[0][0]                   
==================================================================================================
Total params: 22,681,216
Trainable params: 22,681,216
Non-trainable params: 0
__________________________________________________________________________________________________
None
__________________________________________________________________________________________________
Layer (type)                    Output Shape         Param #     Connected to                     
==================================================================================================
main_input1 (InputLayer)        (None, 160, 160, 3)  0                                            
__________________________________________________________________________________________________
zero_padding2d_32 (ZeroPadding2 (None, 162, 162, 3)  0           main_input1[0][0]                
__________________________________________________________________________________________________
conv2d_29 (Conv2D)              (None, 160, 160, 64) 1792        zero_padding2d_32[0][0]          
__________________________________________________________________________________________________
zero_padding2d_33 (ZeroPadding2 (None, 162, 162, 64) 0           conv2d_29[0][0]                  
__________________________________________________________________________________________________
conv2d_30 (Conv2D)              (None, 160, 160, 64) 36928       zero_padding2d_33[0][0]          
__________________________________________________________________________________________________
zero_padding2d_34 (ZeroPadding2 (None, 162, 162, 64) 0           conv2d_30[0][0]                  
__________________________________________________________________________________________________
max_pooling2d_6 (MaxPooling2D)  (None, 80, 80, 64)   0           zero_padding2d_34[0][0]          
__________________________________________________________________________________________________
zero_padding2d_35 (ZeroPadding2 (None, 82, 82, 64)   0           max_pooling2d_6[0][0]            
__________________________________________________________________________________________________
conv2d_31 (Conv2D)              (None, 80, 80, 128)  73856       zero_padding2d_35[0][0]          
__________________________________________________________________________________________________
zero_padding2d_36 (ZeroPadding2 (None, 82, 82, 128)  0           conv2d_31[0][0]                  
__________________________________________________________________________________________________
conv2d_32 (Conv2D)              (None, 80, 80, 128)  147584      zero_padding2d_36[0][0]          
__________________________________________________________________________________________________
zero_padding2d_37 (ZeroPadding2 (None, 82, 82, 128)  0           conv2d_32[0][0]                  
__________________________________________________________________________________________________
max_pooling2d_7 (MaxPooling2D)  (None, 40, 40, 128)  0           zero_padding2d_37[0][0]          
__________________________________________________________________________________________________
zero_padding2d_38 (ZeroPadding2 (None, 42, 42, 128)  0           max_pooling2d_7[0][0]            
__________________________________________________________________________________________________
conv2d_33 (Conv2D)              (None, 40, 40, 256)  295168      zero_padding2d_38[0][0]          
__________________________________________________________________________________________________
zero_padding2d_39 (ZeroPadding2 (None, 42, 42, 256)  0           conv2d_33[0][0]                  
__________________________________________________________________________________________________
conv2d_34 (Conv2D)              (None, 40, 40, 256)  590080      zero_padding2d_39[0][0]          
__________________________________________________________________________________________________
zero_padding2d_40 (ZeroPadding2 (None, 42, 42, 256)  0           conv2d_34[0][0]                  
__________________________________________________________________________________________________
conv2d_35 (Conv2D)              (None, 40, 40, 256)  590080      zero_padding2d_40[0][0]          
__________________________________________________________________________________________________
zero_padding2d_41 (ZeroPadding2 (None, 42, 42, 256)  0           conv2d_35[0][0]                  
__________________________________________________________________________________________________
max_pooling2d_8 (MaxPooling2D)  (None, 20, 20, 256)  0           zero_padding2d_41[0][0]          
__________________________________________________________________________________________________
zero_padding2d_42 (ZeroPadding2 (None, 22, 22, 256)  0           max_pooling2d_8[0][0]            
__________________________________________________________________________________________________
conv2d_36 (Conv2D)              (None, 20, 20, 512)  1180160     zero_padding2d_42[0][0]          
__________________________________________________________________________________________________
zero_padding2d_43 (ZeroPadding2 (None, 22, 22, 512)  0           conv2d_36[0][0]                  
__________________________________________________________________________________________________
conv2d_37 (Conv2D)              (None, 20, 20, 512)  2359808     zero_padding2d_43[0][0]          
__________________________________________________________________________________________________
zero_padding2d_44 (ZeroPadding2 (None, 22, 22, 512)  0           conv2d_37[0][0]                  
__________________________________________________________________________________________________
conv2d_38 (Conv2D)              (None, 20, 20, 512)  2359808     zero_padding2d_44[0][0]          
__________________________________________________________________________________________________
zero_padding2d_45 (ZeroPadding2 (None, 22, 22, 512)  0           conv2d_38[0][0]                  
__________________________________________________________________________________________________
max_pooling2d_9 (MaxPooling2D)  (None, 20, 20, 512)  0           zero_padding2d_45[0][0]          
__________________________________________________________________________________________________
zero_padding2d_46 (ZeroPadding2 (None, 24, 24, 512)  0           max_pooling2d_9[0][0]            
__________________________________________________________________________________________________
conv2d_39 (Conv2D)              (None, 20, 20, 512)  2359808     zero_padding2d_46[0][0]          
__________________________________________________________________________________________________
zero_padding2d_47 (ZeroPadding2 (None, 24, 24, 512)  0           conv2d_39[0][0]                  
__________________________________________________________________________________________________
conv2d_40 (Conv2D)              (None, 20, 20, 512)  2359808     zero_padding2d_47[0][0]          
__________________________________________________________________________________________________
zero_padding2d_48 (ZeroPadding2 (None, 24, 24, 512)  0           conv2d_40[0][0]                  
__________________________________________________________________________________________________
conv2d_41 (Conv2D)              (None, 20, 20, 512)  2359808     zero_padding2d_48[0][0]          
__________________________________________________________________________________________________
zero_padding2d_49 (ZeroPadding2 (None, 22, 22, 512)  0           conv2d_41[0][0]                  
__________________________________________________________________________________________________
max_pooling2d_10 (MaxPooling2D) (None, 20, 20, 512)  0           zero_padding2d_49[0][0]          
__________________________________________________________________________________________________
zero_padding2d_50 (ZeroPadding2 (None, 44, 44, 512)  0           max_pooling2d_10[0][0]           
__________________________________________________________________________________________________
conv2d_42 (Conv2D)              (None, 20, 20, 1024) 4719616     zero_padding2d_50[0][0]          
__________________________________________________________________________________________________
dropout_3 (Dropout)             (None, 20, 20, 1024) 0           conv2d_42[0][0]                  
__________________________________________________________________________________________________
conv2d_43 (Conv2D)              (None, 20, 20, 1024) 1049600     dropout_3[0][0]                  
__________________________________________________________________________________________________
dropout_4 (Dropout)             (None, 20, 20, 1024) 0           conv2d_43[0][0]                  
__________________________________________________________________________________________________
zero_padding2d_51 (ZeroPadding2 (None, 22, 22, 1024) 0           dropout_4[0][0]                  
__________________________________________________________________________________________________
conv2d_45 (Conv2D)              (None, 20, 20, 64)   589888      zero_padding2d_51[0][0]          
__________________________________________________________________________________________________
conv2d_44 (Conv2D)              (None, 20, 20, 64)   65600       dropout_4[0][0]                  
__________________________________________________________________________________________________
dense_15 (Dense)                (None, 20, 20, 64)   4160        conv2d_45[0][0]                  
__________________________________________________________________________________________________
dense_14 (Dense)                (None, 20, 20, 64)   4160        conv2d_44[0][0]                  
__________________________________________________________________________________________________
concatenate_7 (Concatenate)     (None, 20, 20, 128)  0           dense_15[0][0]                   
                                                                 dense_14[0][0]                   
__________________________________________________________________________________________________
zero_padding2d_53 (ZeroPadding2 (None, 22, 22, 512)  0           max_pooling2d_10[0][0]           
__________________________________________________________________________________________________
zero_padding2d_52 (ZeroPadding2 (None, 22, 22, 128)  0           concatenate_7[0][0]              
__________________________________________________________________________________________________
conv2d_47 (Conv2D)              (None, 20, 20, 64)   294976      zero_padding2d_53[0][0]          
__________________________________________________________________________________________________
conv2d_46 (Conv2D)              (None, 20, 20, 64)   73792       zero_padding2d_52[0][0]          
__________________________________________________________________________________________________
dense_17 (Dense)                (None, 20, 20, 64)   4160        conv2d_47[0][0]                  
__________________________________________________________________________________________________
dense_16 (Dense)                (None, 20, 20, 64)   4160        conv2d_46[0][0]                  
__________________________________________________________________________________________________
concatenate_8 (Concatenate)     (None, 20, 20, 128)  0           dense_17[0][0]                   
                                                                 dense_16[0][0]                   
__________________________________________________________________________________________________
zero_padding2d_55 (ZeroPadding2 (None, 22, 22, 512)  0           max_pooling2d_9[0][0]            
__________________________________________________________________________________________________
zero_padding2d_54 (ZeroPadding2 (None, 22, 22, 128)  0           concatenate_8[0][0]              
__________________________________________________________________________________________________
conv2d_49 (Conv2D)              (None, 20, 20, 64)   294976      zero_padding2d_55[0][0]          
__________________________________________________________________________________________________
conv2d_48 (Conv2D)              (None, 20, 20, 64)   73792       zero_padding2d_54[0][0]          
__________________________________________________________________________________________________
dense_19 (Dense)                (None, 20, 20, 64)   4160        conv2d_49[0][0]                  
__________________________________________________________________________________________________
dense_18 (Dense)                (None, 20, 20, 64)   4160        conv2d_48[0][0]                  
__________________________________________________________________________________________________
concatenate_9 (Concatenate)     (None, 20, 20, 128)  0           dense_19[0][0]                   
                                                                 dense_18[0][0]                   
__________________________________________________________________________________________________
zero_padding2d_57 (ZeroPadding2 (None, 22, 22, 256)  0           max_pooling2d_8[0][0]            
__________________________________________________________________________________________________
zero_padding2d_56 (ZeroPadding2 (None, 22, 22, 128)  0           concatenate_9[0][0]              
__________________________________________________________________________________________________
conv2d_51 (Conv2D)              (None, 20, 20, 64)   147520      zero_padding2d_57[0][0]          
__________________________________________________________________________________________________
conv2d_50 (Conv2D)              (None, 20, 20, 64)   73792       zero_padding2d_56[0][0]          
__________________________________________________________________________________________________
dense_21 (Dense)                (None, 20, 20, 64)   4160        conv2d_51[0][0]                  
__________________________________________________________________________________________________
dense_20 (Dense)                (None, 20, 20, 64)   4160        conv2d_50[0][0]                  
__________________________________________________________________________________________________
concatenate_10 (Concatenate)    (None, 20, 20, 128)  0           dense_21[0][0]                   
                                                                 dense_20[0][0]                   
__________________________________________________________________________________________________
zero_padding2d_58 (ZeroPadding2 (None, 22, 22, 128)  0           concatenate_10[0][0]             
__________________________________________________________________________________________________
zero_padding2d_59 (ZeroPadding2 (None, 42, 42, 128)  0           max_pooling2d_7[0][0]            
__________________________________________________________________________________________________
conv2d_52 (Conv2D)              (None, 20, 20, 64)   73792       zero_padding2d_58[0][0]          
__________________________________________________________________________________________________
conv2d_53 (Conv2D)              (None, 40, 40, 64)   73792       zero_padding2d_59[0][0]          
__________________________________________________________________________________________________
dense_22 (Dense)                (None, 20, 20, 64)   4160        conv2d_52[0][0]                  
__________________________________________________________________________________________________
dense_23 (Dense)                (None, 40, 40, 64)   4160        conv2d_53[0][0]                  
__________________________________________________________________________________________________
conv2d_transpose_4 (Conv2DTrans (None, 40, 40, 64)   65600       dense_22[0][0]                   
__________________________________________________________________________________________________
concatenate_11 (Concatenate)    (None, 40, 40, 128)  0           dense_23[0][0]                   
                                                                 conv2d_transpose_4[0][0]         
__________________________________________________________________________________________________
zero_padding2d_60 (ZeroPadding2 (None, 42, 42, 128)  0           concatenate_11[0][0]             
__________________________________________________________________________________________________
zero_padding2d_61 (ZeroPadding2 (None, 82, 82, 64)   0           max_pooling2d_6[0][0]            
__________________________________________________________________________________________________
conv2d_54 (Conv2D)              (None, 40, 40, 64)   73792       zero_padding2d_60[0][0]          
__________________________________________________________________________________________________
conv2d_55 (Conv2D)              (None, 80, 80, 64)   36928       zero_padding2d_61[0][0]          
__________________________________________________________________________________________________
dense_24 (Dense)                (None, 40, 40, 64)   4160        conv2d_54[0][0]                  
__________________________________________________________________________________________________
dense_25 (Dense)                (None, 80, 80, 64)   4160        conv2d_55[0][0]                  
__________________________________________________________________________________________________
conv2d_transpose_5 (Conv2DTrans (None, 80, 80, 64)   65600       dense_24[0][0]                   
__________________________________________________________________________________________________
concatenate_12 (Concatenate)    (None, 80, 80, 128)  0           dense_25[0][0]                   
                                                                 conv2d_transpose_5[0][0]         
__________________________________________________________________________________________________
zero_padding2d_62 (ZeroPadding2 (None, 82, 82, 128)  0           concatenate_12[0][0]             
__________________________________________________________________________________________________
conv2d_56 (Conv2D)              (None, 80, 80, 64)   73792       zero_padding2d_62[0][0]          
__________________________________________________________________________________________________
dense_26 (Dense)                (None, 80, 80, 64)   4160        conv2d_56[0][0]                  
__________________________________________________________________________________________________
conv2d_transpose_6 (Conv2DTrans (None, 160, 160, 64) 65600       dense_26[0][0]                   
==================================================================================================
Total params: 22,681,216
Trainable params: 22,681,216
Non-trainable params: 0
__________________________________________________________________________________________________
None
